algorithm_design/permutation/model_ckpt1.pth (torch, 210864 bytes, 6 tensors)

linear1.weight f4 [64, 784]
00000000: 2b50 85bd f0ce 13bd 2391 90bd d1fb b4bd
00000010: 3c3e 84bd 84bd 7cbd 434a a5bd 4a5d 24bd
00000020: 51c6 14bd 87f4 a9bd 8911 a0bd 14df 5bbd
00000030: fe7d 19bd 687c a8bd 20fe 30bd 5963 50bd
00000040: aa3b 9abd 20c3 9dbd 734e b4bd 6625 5ebd
00000050: a55b 7abd c9c0 18bd 47b3 6cbd 05ca 98bd
00000060: f172 a5bd a2fb abbd 80dd 17bd 0364 acbd
00000070: 6f98 9cbd a00e 20bd 7ece 9bbd 84aa 5ebd
00000080: 8c2f f4bc 8435 afbd 03f4 8cbd 9e10 d6bc
00000090: 8caf 91bd 58cf 44bd 7bdd 6dbd ccce 65bd
000000a0: 6efc 48bc c354 89bd 12a6 6bbd bb73 3abd
000000b0: c6e2 d0bd 6978 aebd 306b a4bd 2d51 90bd
000000c0: 9da1 a8bd 1870 93bd d823 71bd f3f4 64bd
000000d0: 724e 86bd 6d77 95bd cd09 b1bd 7ac8 96bd
000000e0: 091c 94bd b3c5 1abd e20b 3cbd 25b9 b3bd
000000f0: ce6b 06bd 8d65 95bd 78e2 87bd 5934 b3bc
00000100: 1932 d3ba c986 99bb 1783 14bd 9596 163d
00000110: 3e58 88bd d945 09be cc5b 29bd e77e 753c
00000120: 56da aeb9 1422 d13d 8e56 af3d b238 173d
00000130: 56bd 103d 1401 003c a835 88bb 4900 03bd
00000140: 3550 39bd 05c0 5dbd afb8 aabd e5c9 78bd
00000150: 4ac5 90bd d3a5 72bd 57b9 2fbd 1669 1ebd
00000160: 43a9 2cbd b63c 55bd e2f1 a73c 2be5 f53c
00000170: 4e7d f13c dca4 21bc 426b 1f3d 053f 37bc
00000180: e61e 76bd de1d 6c3d f0ad d83b 3392 6b3e
00000190: 1c96 5e3e 5e15 083d e598 bf3d 2d9c 53bc
000001a0: 536c 14be 0822 4e3b fafc c53b 0ef2 fa3d
000001b0: 6773 943b e082 a4bd c951 5fbd 38d8 88bd
000001c0: 6dde 0dbd 27ed 3ebd 9d57 9abd 6f3d 42bd
000001d0: b11b c0bc 4f9a 3a3d 712f 843d 83e2 ca3d
000001e0: fc0f e4bb ad57 91bd 818e 183d a109 28be
000001f0: 78a1 95bc 7d4b 4fbd 6428 123e b545 893d
00000200: e7ad 3c3e cc16 9a3d 399d a2bd 35c3 9bbc
00000210: e91d d0bd cacc 54bc 5ada 06be 9fa1 23be
00000220: 0eb2 f1bd ccd3 27bd 5516 acbd cbca 01bd
00000230: 0c3d 80bd 48aa 18bd 991d 17bd 87f4 cdbd
00000240: d055 e9bd 9717 50be 203e d4bd 7ed8 63bd
00000250: 6e07 26be 90f4 fbbd df85 97be f9ef e5bd
00000260: e500 833d ae35 68bd b9ef 993d 2201 1a3c
00000270: b9c6 693e a5fe 863e ce91 2e3d 1745 623e
00000280: 8608 8d3d f167 03bb 3270 10be 0004 60be
00000290: 4f09 e4bd 481f 03bd 9cbd 39bd 8041 71bd
000002a0: 86e7 2ebd 8405 9abd ba86 0fbd f477 90bd
000002b0: 1e11 bbbc 3872 f5bd b24c 3ebe eaf8 afbd
000002c0: 1fdc a8bd 485c 8e3d cf6c debd b4f6 503d
000002d0: 1588 0a3b aec1 2bbe 28e6 9ebd b662 263d
000002e0: be43 c13d 12d6 363e ed8a 0c3d f36d 513e
000002f0: b3ab 183d 4619 2fbe b64b 01be 62ee 71bd
00000300: b8b5 86bd ab6f 55bd d570 89bd b37e abbd
00000310: 9b5a 7bbd ecb9 43bd 6d3f 6fbd 09f6 8abd
00000320: 6bc9 d53d aafa 3cbe fe69 01be 24a6 82be
00000330: 92b3 a33c 1c6c 87bd 7b90 2ebd 7216 29be
00000340: b770 94bd 16f0 8bbd 7ab8 95bd 68b6 b8bc
00000350: 3db9 ecbd c2d4 cbbd f043 42be 179c 53be
00000360: 7dc7 19be a832 27bd d142 51bd 3a30 2ebe
00000370: 3e57 98bd 666b cfbb 5d6d 60bd 5474 a9bd
00000380: 5b5a acbd 5e60 61bd 2baf 35bc df3d d73c
00000390: c85b bf3d ac98 8abc 8173 093c 558e 72bb
000003a0: a8bd 833d be35 c03d d09a b0bc cde8 a4bd
000003b0: fc1a 3abd bc01 813e 97ba fb3b 5721 aebd
000003c0: 1f36 68be 6d84 86be 8598 90be 8b7e 4abe
000003d0: 0ab3 62be b98d babd cb95 44be de73 90be
000003e0: e176 0abd 9335 ad3d fc4f ce39 6ca1 5cbd
000003f0: 9067 4fbd a50a 99bd 4ff5 8fbd 2e29 813d
-0.065094315 -0.036086023 -0.07058933 -0.08837093 -0.06457183 -0.061704174 -0.08070805 -0.04012803
-0.03632194 -0.08298593 -0.078158446 -0.05367954 -0.03747367 -0.082268536 -0.043211102 -0.050875995
-0.07530911 -0.07703233 -0.088040255 -0.054234885 -0.061122555 -0.03729323 -0.05778816 -0.07460407
-0.08078564 -0.083976045 -0.037076473 -0.08417513 -0.07646262 -0.039076447 -0.07607745 -0.054361835
-0.029807828 -0.08555129 -0.06882479 -0.02613097 -0.07113561 -0.0480493 -0.05807255 -0.05610542
-0.012267215 -0.0670562 -0.057531424 -0.045520525 -0.101995036 -0.0851906 -0.08028257 -0.07046733
-0.0823395 -0.071991146 -0.058872074 -0.055897664 -0.06557931 -0.07298169 -0.086444475 -0.073624566
-0.0723191 -0.037786197 -0.04590977 -0.08775548 -0.032817654 -0.0729476 -0.06634992 -0.021875547
-0.0016112953 -0.004685257 -0.03625783 0.0367647 -0.06657456 -0.13405551 -0.04134731 0.014983869
-0.0003335054 0.10211578 0.08561431 0.036919303 0.035336815 0.007812757 -0.004156787 -0.031982694
-0.045242507 -0.054138202 -0.08336007 -0.060739417 -0.0706888 -0.059240174 -0.042901363 -0.038674437
-0.042153608 -0.05205985 0.02050108 0.030016502 0.029478695 -0.009865966 0.03892065 -0.011184459
-0.06008806 0.05764567 0.006612532 0.2300499 0.2173695 0.033223502 0.09355334 -0.012915653
-0.14494447 0.003145339 0.00604212 0.122531995 0.0045303586 -0.08032775 -0.054521356 -0.066818655
-0.03463595 -0.046612885 -0.07536242 -0.04742187 -0.023450704 0.045557316 0.06454361 0.09906485
-0.0069599133 -0.07096801 0.037245277 -0.16409923 -0.01826547 -0.0506091 0.1427322 0.06702749
0.18425713 0.075238794 -0.07940144 -0.01901398 -0.10161955 -0.012988279 -0.13169232 -0.15979622
-0.11801539 -0.04097347 -0.08402697 -0.03168754 -0.06261644 -0.037271768 -0.03689346 -0.100564055
-0.113933206 -0.20321499 -0.10363412 -0.055626385 -0.16213772 -0.12302506 -0.29594323 -0.11227412
0.06396655 -0.056691818 0.075164266 0.009399684 0.22829713 0.26366153 0.04261952 0.22096668
0.06886391 -0.0020050968 -0.14105299 -0.21876526 -0.11134588 -0.032012254 -0.04534684 -0.058900356
-0.042701267 -0.07520583 -0.035040595 -0.07054129 -0.02283531 -0.11984676 -0.18583944 -0.085923985
-0.0824511 0.06951195 -0.10860597 0.051016524 0.002113824 -0.16773102 -0.077587426 0.04062148
0.09436749 0.17855099 0.034312177 0.20452099 0.03727312 -0.17099485 -0.12626538 -0.05906523
-0.06577629 -0.052108448 -0.06710974 -0.08373775 -0.061365705 -0.04778473 -0.058410097 -0.06785209
0.10438808 -0.18454996 -0.12638089 -0.2551738 0.019983087 -0.06612417 -0.042618256 -0.16512468
-0.07248061 -0.06832902 -0.07310577 -0.022547916 -0.11558769 -0.0995269 -0.18971229 -0.20665012
-0.15017505 -0.040819794 -0.05108911 -0.17010584 -0.07438515 -0.0063299416 -0.054791797 -0.08274141
-0.084156714 -0.055023544 -0.011089127 0.02627462 0.09343678 -0.016918503 0.008389355 -0.0037011106
0.064326584 0.093852505 -0.021558195 -0.08052216 -0.04543589 0.25196636 0.0076821554 -0.08502453
-0.22676896 -0.26272908 -0.28241363 -0.19774835 -0.2213861 -0.09109063 -0.19197766 -0.282134
-0.033804778 0.08457484 0.00039350975 -0.05386488 -0.050635874 -0.074727334 -0.07029211 0.063066825

linear1.bias f4 [64]
00000000: 631a b13d b9d2 3cbc 0b53 983c 5fe3 c83c
00000010: 7d2e 80bc ed95 82bc a50a 59bb bbdb a2bc
00000020: b6f5 e53c 59de 26bc a91a f93c f28f 86bc
00000030: 8236 7bbd 770d cdbc 5e3d 8a3b 599e 03bd
00000040: 7ffd a4bb facc c43b 630a a53b acd0 ca3b
00000050: b5d5 f0bc 0716 9fbc 7f21 dd3b 5900 a13c
00000060: 631c d8bc e59c 6dbb 25d0 d43b e175 3c3d
00000070: 9d1e 7abc dd1a b83b ad31 32bd f7d9 eebc
00000080: 577c ecbc e090 d0bb 17ab e33a f996 0c3d
00000090: 6dfd 0ebd cc2d d33c 40fc 7e3d 66b7 6e3c
000000a0: d739 4d3b 5251 d93b edcf 483d b9dd dabb
000000b0: 5254 8f3d f078 7ebc c74c 083c d71a 16bd
000000c0: c244 c8bc 1733 babc 0561 6ebc 9ac6 233c
000000d0: 598e 19bd 9d13 64bd 17fe adbc 6da3 27bc
000000e0: 0018 a63c c91a a5bc e2cf f1bb 9957 d2bc
000000f0: 0707 c53c 0014 16bd 9bb3 273b 60b9 0a3d
0.08647611 -0.01152485 0.018594285 0.024522481 -0.015647167 -0.01594063 -0.0033117917 -0.019880166
0.028071266 -0.010184848 0.03040822 -0.01642606 -0.06133128 -0.025030835 0.0042187413 -0.032133434
-0.005035102 0.0060058804 0.0050366386 0.0061894264 -0.029398778 -0.019419683 0.006748378 0.019653486
-0.026380723 -0.0036256847 0.0064945393 0.046010856 -0.015266088 0.0056184367 -0.043504406 -0.029156668
-0.028867884 -0.0063649267 0.0017369714 0.034323666 -0.034909654 0.025778674 0.062252283 0.014570093
0.0031314993 0.0066320086 0.04902642 -0.0066792634 0.06998505 -0.015531763 0.008319086 -0.03664669
-0.024446849 -0.02272944 -0.014549498 0.009996081 -0.03748927 -0.055682767 -0.021239324 -0.010231835
0.020275116 -0.020154374 -0.007379518 -0.025676535 0.024051202 -0.036640167 0.002558923 0.033868194

linear2.weight f4 [24, 64]
00000000: 2e76 7f3e 227b 19be 2c82 6b3d 3437 59be
00000010: 2f9b e93d a4c2 8dbc 8785 c73d 2bed b8bd
00000020: ddc3 1bbe b173 bb3d 99c1 143e bec6 f33d
00000030: 630e 6cbe d6d6 c9be 1493 2ebd b3bb babc
00000040: f52f 87bd 25a0 afbc 0072 6c3d 98da fa3d
00000050: 897b 993e 7b61 9fbe 23c4 d7bd 9e5a 113e
00000060: edbc 82bd 428f b23d e4f0 773e e42b 223e
00000070: a65c 6c3d ff2d f7bb 0107 fe3c 5354 903d
00000080: 3517 903e 3d6c 14be 9bfb 2fbf 536d 013e
00000090: a9f6 393d c177 1bbb e1ed 703d 0204 d73d
000000a0: a11b fe3d 73c7 f0bc 59ae 843c c2a3 3c3e
000000b0: 89f4 20be d05c a63c df8b 08bd 7beb 3dbd
000000c0: bff5 7cbe 7dc0 693c a387 3c3e cd55 71be
000000d0: 54c2 593e 7018 20be 44ef d0bd 0675 8dbe
000000e0: 4da6 4fbe c0f2 31be 0699 33be c3c4 893e
000000f0: e5ef 8c3d 1f2e 8a3d 0a60 353d 60b5 863e
00000100: 379a 073e 97d5 fabe b0d2 7abe 5459 9b3c
00000110: 465d b8bd 43b1 7d3d ec21 353e 75da 523d
00000120: f8fa 103e e03a c53e 0933 5dbe d893 a9bd
00000130: 78ee b93d 3f43 ecbd 921a 09bc 6f80 183e
00000140: 0c1c 543e 1c53 2b3e 0775 01bc 642f 133d
00000150: 2a84 a53d af3e 293d f914 afbe c77d a43c
00000160: 016d 963b 2bc8 5a3e 30d1 2e3e 9326 91bd
00000170: cf86 863e dd8d 4abe df8e 343e 9e00 b53d
00000180: e99f 07be 7869 b33c bc34 a33c 314e 953c
00000190: 1e60 84be 9170 dabb cc43 493e cdc7 8dbd
000001a0: b2d0 ea3d 552f c83c 963c ba3d 5076 e6bd
000001b0: e493 ffbd 2567 b1bd 82af 9fbd 1f01 cb3d
000001c0: b987 babe bec9 af3d 6824 a23d d449 8abd
000001d0: 7aca 3a3e b604 9d3e 42a5 41be 7a45 3c3e
000001e0: 1db3 81be 41f3 dcbc db4d c3be 3c0d e43d
000001f0: 76c1 afbc 3c73 0cbd dc47 fa3d 4071 f1bc
00000200: 5644 213e ce3a dabd 5b42 4cbe 49f8 8ebe
00000210: 760a 56be f504 0e3e a663 6f3e 9856 cf3d
00000220: 1e12 dbbc 41e1 fcbd 6a38 80bd 208a f03c
00000230: 6a47 4f3e 6d92 a93e 0660 aa3e 0518 fcbd
00000240: 8c4b 303e da71 7bbd f863 1b3d cfdc 3d3e
00000250: 2eb7 023d 05cb 1f3e 69a4 3bbe d51f 093e
00000260: 8005 143e 6554 953d d89e b0bd 8fad 213e
00000270: da3b bfbd 9df7 41be e043 0fbd ae84 38bc
00000280: 635a ed3d f1f9 2d3e 762c 273e f7df 07be
00000290: dce6 00be f5e6 70bd e663 9b3d 9e06 debc
000002a0: b840 43be bcdb e2be 4703 2a3e b203 553e
000002b0: e0cd 903d e3db 503d 46d3 b3b9 a463 5d3d
000002c0: 9e46 6dbe 8b8d bc3c cc99 a2bc ddf1 ae3e
000002d0: 2268 a73e b647 9ebe 5a84 c03e 8231 e2bd
000002e0: a61d 14be ea85 9c3e 31dd 023d 4953 69be
000002f0: 9d1c f6be 0b37 d33d 90a8 f5bb 8461 15bd
00000300: dd1c e63d d04c 033f 9f53 0f3f 324a 263d
00000310: fd21 963e 5514 b6bd 472e f2bd bfa8 f03c
00000320: 47b1 e9bc 7a18 153e 03fa 283c fea7 88bb
00000330: ab1d b6be 1ac5 eabd a78c 803e 0fcc c93d
00000340: 99f5 2b3e bcf3 25be 1b97 ad3e 9f05 263e
00000350: 2bd0 a23d 6130 4c3b fd9d 203e 944f babd
00000360: 6993 abbe a60d bd3d 765b 7bbe a779 043e
00000370: f1d6 d93e 7db6 ad3e dda2 af3d eda4 e23c
00000380: 37e6 c5bb 1b85 3dbd 6c06 7abe 2208 8a3e
00000390: 818c 983e 133a 493d 6c82 42bd 39cc d23d
000003a0: 3849 3e3e 1915 6cbd 6c54 353e dc1d 263e
000003b0: e95e bd3e c1f3 a03c 29bf bd3c 2f44 3f3d
000003c0: bed5 abbd c147 f6be e4d5 1cbe 7032 d53d
000003d0: 6d37 47be 8d39 193d c6b7 7ebd bf5d 9bbe
000003e0: 12f2 b63d a4cd 84be 6213 163f 7658 a53d
000003f0: f9c3 183e c725 44be 6557 8abc 7bbf c23e
0.24947426 -0.14988378 0.05749719 -0.21212465 0.11406552 -0.017304726 0.09742265 -0.09029611
-0.15211435 0.09152926 0.14526977 0.119031414 -0.23052363 -0.3942172 -0.042620733 -0.02279458
-0.06600944 -0.021438668 0.057725906 0.12248725 0.29977062 -0.3112906 -0.10535457 0.14194724
-0.06383691 0.087187305 0.24212986 0.15837055 0.057705544 -0.007543325 0.0310092 0.070473336
0.28142706 -0.14494415 -0.68743294 0.1263936 0.04540125 -0.0023722502 0.05882061 0.10498811
0.124076135 -0.02939198 0.016196417 0.18421844 -0.15718283 0.020307928 -0.033336516 -0.04636715
-0.2470312 0.014267084 0.18411116 -0.23567887 0.21265537 -0.15634322 -0.10201886 -0.27628344
-0.20278282 -0.17377758 -0.17538843 0.2690793 0.06881694 0.06747078 0.044281043 0.26310253
0.13242422 -0.4899108 -0.24494433 0.018963493 -0.090021655 0.061936628 0.17688721 0.051477868
0.14158237 0.3852148 -0.216015 -0.08280152 0.090786874 -0.11536264 -0.008368151 0.14892744
0.20713824 0.16730922 -0.007901437 0.035933867 0.08081849 0.041319545 -0.34195688 0.020079507
0.004590631 0.2136542 0.17071986 -0.070874356 0.26274726 -0.19780679 0.17632626 0.08838008
-0.13244595 0.021900877 0.019922607 0.018225761 -0.25854582 -0.006666251 0.19654769 -0.069228746
0.11465587 0.024436632 0.09093587 -0.11253035 -0.1247938 -0.086622514 -0.07797147 0.09912323
-0.36431673 0.08583401 0.079171 -0.06752363 0.18241301 0.30667657 -0.18910697 0.18385878
-0.25331965 -0.026971461 -0.38145337 0.11135337 -0.021454554 -0.034289584 0.12220737 -0.029472947
0.15748724 -0.10655747 -0.19947188 -0.27923802 -0.20902428 0.13869078 0.23377857 0.10123938
-0.026742037 -0.12347651 -0.0626076 0.029362738 0.20242086 0.33119527 0.33276385 -0.12309269
0.17216319 -0.061387874 0.037937135 0.18541263 0.031912975 0.1560479 -0.18324436 0.13391049
0.14455223 0.072914876 -0.08624047 0.15788864 -0.09337588 -0.18942113 -0.03497684 -0.011262102
0.115895055 0.16989876 0.16325554 -0.1326903 -0.12588066 -0.058814008 0.075874135 -0.027102765
-0.19067657 -0.4430827 0.16602813 0.20802191 0.070705175 0.05099095 -0.00034298952 0.054050103
-0.2317147 0.023016712 -0.019848727 0.34168902 0.32696635 -0.30914086 0.37600976 -0.11044599
-0.14464435 0.30570918 0.031949226 -0.22785677 -0.48068705 0.10313233 -0.007496901 -0.03646995
0.11235974 0.5128908 0.5598697 0.040598102 0.29322806 -0.08890597 -0.11825233 0.02937734
-0.028526915 0.14560118 0.010313514 -0.004170417 -0.3556951 -0.114633754 0.2510731 0.09853374
0.16792907 -0.16206259 0.33904347 0.16213082 0.07949861 0.0031156766 0.15685268 -0.090972096
-0.33510903 0.09231119 -0.24546608 0.12937032 0.425468 0.3392829 0.085759856 0.027666533
-0.0060394066 -0.046269517 -0.24416512 0.2695933 0.29794696 0.04912765 -0.04748766 0.10292859
0.18582618 -0.057637308 0.17707986 0.16222328 0.36986473 0.01964748 0.023162441 0.046695884
-0.083903775 -0.4810162 -0.15315968 0.10410011 -0.19454737 0.0374084 -0.06218698 -0.3034496
0.0893289 -0.2593814 0.58623326 0.08073513 0.14918508 -0.19155036 -0.016887376 0.38036713

linear2.bias f4 [24]
00000000: 7414 eabc 2e0a 403d e694 5f3e 1a76 f6bc
00000010: ba3f 84bc 5354 29be 8094 e0bd 7a37 0b3d
00000020: dbc8 0f3d d15d 7b3c d98e 593d 5eba 41be
00000030: f07c 963d fccb 063e cb28 513e f370 063e
00000040: 454d 813c f47e c83c 0912 153e 98b3 123e
00000050: e871 913d 7c12 18be 8ee3 4f3e 2d5e e9bb
-0.028574206 0.046884708 0.21834144 -0.030085612 -0.016143668 -0.16536073 -0.10965824 0.033988453
0.03510366 0.015342192 0.053114746 -0.1891875 0.07348049 0.13163751 0.20425718 0.13129024
0.015783915 0.024474598 0.14557661 0.14326322 0.07101804 -0.14850801 0.20301649 -0.0071218223

linear3.weight f4 [10, 24]
00000000: 1772 c7bd 1307 6e3d 96c0 bcbd 757f 02bf
00000010: 2933 d63d d511 80bd 3dbc d6be b935 03be
00000020: f104 1ebe 7250 7d3e fa77 53be 34b5 483e
00000030: fe1f eebb 9874 05bf 7c94 0c3e b2f9 d0be
00000040: 859d efbe d490 cd3e f8ae 88be 19dd 3d3e
00000050: ea22 8c3e 8d4f 533c 3e89 96bd c146 9fbd
00000060: 7c73 cfbe 7a38 a8bc 60d0 83be fbed 1b3e
00000070: 6754 38bf d0c7 963e 41f7 60bd 3dd9 243e
00000080: f189 10bd 062a a4be 409c 39be e4f2 3f3e
00000090: 795c 7abc 1c42 593d cb39 25bf edfd bb3d
000000a0: 6430 853d e57f c73d 2bed e63c 187a 473e
000000b0: 0e27 15be 4df1 8e3c 64c2 14bf 1080 b73e
000000c0: 3bce ac3e a630 073e f0cf 15bf 1835 803e
000000d0: 6411 eebd 8b61 0fbe bbff ff3d 1774 ba3d
000000e0: f88b 0ebb 4342 e4bc 7b44 a33c 3f0a afbe
000000f0: e700 8ebe 02df d7be e52f 033e dda5 0ebe
00000100: eea1 ab3e 3910 ddbe 78f8 50be 1d5d 273e
00000110: c32b 243e ac0e 08be 547f 0dbe e49f 183e
00000120: d572 d13c 3e53 3fbe 85f5 99bc 5fd1 9c3e
00000130: 997c e43d b9dc 2d3c 9aab 7ebe fc89 8f3e
00000140: cda8 44be 7a47 8b3e fcff cdbe 2dda b5be
00000150: adf8 0fbe e91f 553e dcc4 d8be 05f4 efbe
00000160: ba27 72be f0ed fbbd 0665 c8be db05 433e
00000170: 4f12 5abe 9a7f 2dbe 9a2d 473e b3dd 7abe
00000180: edc9 d2bd 6dc4 893e 5e08 a4bd 92fd 69be
00000190: 0586 9c3d e418 163e b149 88be 0132 3ebe
000001a0: 3b34 8cbe cabf 05bf 5fb7 b93e 057e d6be
000001b0: e681 73be 2010 863d 1710 04be 3824 973e
000001c0: 16a7 243e d341 a03e 8f60 48bd f72a aabe
000001d0: cb3f debe 2b34 283e 7d26 82be b566 2a3e
000001e0: 0cbf 12be 09a6 edbe 7be8 933e 4260 073e
000001f0: 1442 703e 162c f3be 77b1 823e bcb2 563e
00000200: 7f8c 08be f469 913c 6121 33be 09c8 433e
00000210: 43eb 863d dee9 11bb e13f 91bb 8f1f 6c3c
00000220: ecb1 043d 8da0 1bbd 627f 4abe c1c3 f2be
00000230: aa97 2cbd 91f3 b8be 2c07 e8bb 56d9 ac3c
00000240: cc90 583e 477c 633e 7def 953e cb4d 1cbf
00000250: 67a1 2cbe e458 7f3e 61e0 d63d 28ef 0b3e
00000260: 16d1 3b3d eeb0 fb3d 5b27 04bf 6d9a 083e
00000270: 379b 1fbe be99 11bf 9c54 5b3d 6881 993e
00000280: fd6b b9bd 320a 91be 298c 46be dea3 96be
00000290: 63ff cebd 94da b23e 8fa1 ce3d d38d 39be
000002a0: 7ee0 e5be 6e86 28be 5049 ccbe 6823 113e
000002b0: 4980 27be 8d96 563e 977a bcbe 97d2 96be
000002c0: 5c0d 84be 0538 e93d 46ef 293e 4c29 db3d
000002d0: ea42 ef3b 4f44 513e b43b 09bd 1bdc 00bf
000002e0: b24e 993e 5169 05be f9a7 28be 929e 2cbe
000002f0: 8f95 583e c1af 933e 77d0 02bf 749c 07be
00000300: 6b26 0fbe 9606 5b3e e36e 953e afec 4fbd
00000310: 269f b4be f7e8 8ebe bf0e 9dbd 526e 95be
00000320: 2e0b c73d 9b22 14be 1174 79be 6d52 babe
00000330: a703 0b3e 1a22 593d c01a 013e 3063 d13d
00000340: 4b40 073e dc0b d5bd 1a80 d73d 2248 d03d
00000350: a352 753e 4a09 05bf eb93 8c3e 1a90 e0be
00000360: 81d6 333e 2892 8abe d0ce debd 06db 2b3d
00000370: 0088 a33c c3b7 3bbd ce6a 693e e0da e8be
00000380: c5db 45be 6a82 d93d 2226 cc3d febb cfbe
00000390: 60d6 793c 278b 3b3e 6559 293e 4703 eabd
000003a0: 13e4 0dbf 3af1 713e f03d 553e 95f4 6abd
000003b0: f0de c2be 257b b93d ff12 9a3d d0ae 993e
-0.09738558 0.058112215 -0.0921642 -0.50975734 0.10458977 -0.06253401 -0.4194049 -0.12813462
-0.15431572 0.24737719 -0.20651236 0.19600374 -0.0072669974 -0.5213103 0.13728517 -0.40815502
-0.46799865 0.40149558 -0.2669599 0.18541373 0.27370387 0.012897384 -0.073503956 -0.07777167
-0.40517795 -0.020534743 -0.25744915 0.15227501 -0.7200379 0.2944932 -0.0549233 0.16098495
-0.0352878 -0.3206331 -0.18126011 0.18744999 -0.015280836 0.053041562 -0.6454131 0.09179292
0.065033704 0.09741191 0.028189262 0.19480169 -0.1456568 0.017449046 -0.58109117 0.3583989
0.3375109 0.13202152 -0.5852041 0.25040507 -0.11624411 -0.14002053 0.124999486 0.09104174
-0.0021750908 -0.027863627 0.019930115 -0.34187505 -0.27735063 -0.4216233 0.12811239 -0.1393046
0.3352198 -0.4317644 -0.20407283 0.16344114 0.16032319 -0.13286847 -0.13818103 0.14904743
0.025567451 -0.18684098 -0.01879383 0.30628487 0.111565776 0.010611706 -0.24870148 0.2803496
-0.19205017 0.2720297 -0.40234363 -0.35518017 -0.14059706 0.20812954 -0.42337692 -0.4686586
-0.23647967 -0.12301242 -0.39139575 0.19045202 -0.21296047 -0.16943207 0.1945099 -0.24498634
-0.102924205 0.26907673 -0.080094084 -0.22850636 0.0764275 0.14657933 -0.26618722 -0.18573762
-0.273836 -0.5224577 0.36272714 -0.4189302 -0.23780021 0.06546044 -0.12896763 0.2951982
0.16079363 0.3130022 -0.04892021 -0.33235905 -0.43408045 0.1642615 -0.2541999 0.16640742
-0.14330691 -0.46415737 0.28888306 0.13220313 0.23462707 -0.47494572 0.2552602 0.20966619
-0.13334845 0.017750718 -0.17493202 0.19119276 0.06587841 -0.002226464 -0.004432664 0.014411821
0.032396242 -0.03799491 -0.19775155 -0.47414973 -0.042136826 -0.36123326 -0.007080933 0.021099728
0.21148986 0.22215377 0.29284278 -0.610562 -0.16858445 0.24936253 0.10492016 0.1366545
0.045853697 0.12289606 -0.5162255 0.13340159 -0.15586554 -0.56875217 0.053547487 0.29981542
-0.090538 -0.2832809 -0.19389404 -0.29421896 -0.10107305 0.34932387 0.100894086 -0.18120508
-0.44897836 -0.16457531 -0.39899683 0.14173663 -0.1635753 0.20955868 -0.3681228 -0.29457542
-0.25791442 0.11387638 0.16595182 0.10701236 0.007301678 0.20436214 -0.033504203 -0.50335854
0.29942852 -0.13028456 -0.16470326 -0.16857365 0.21150802 0.28845027 -0.5109934 -0.13243276
-0.13979499 0.21389231 0.29186162 -0.05076283 -0.3527767 -0.27912113 -0.07668828 -0.2918573
0.09718929 -0.14466326 -0.24360682 -0.3639101 0.13575612 0.053011037 0.1260786 0.10223997
0.1320812 -0.104026526 0.1052248 0.10170008 0.23957305 -0.519673 0.27456602 -0.4385994
0.17562295 -0.27064633 -0.1087929 0.041956924 0.01996231 -0.045829546 0.22794649 -0.45479488
-0.19322117 0.10620578 0.09968211 -0.40573114 0.015248865 0.18314801 0.16538008 -0.11426406
-0.5542614 0.23627177 0.20824409 -0.057362158 -0.38060713 0.09056691 0.075231545 0.30016184

linear3.bias f4 [10]
00000000: 26a8 dbbd 42ef bebc 4ab1 7fbd 3186 86bc
00000010: 9cc9 2f3d b7b2 65bd e1f7 86bd 2976 30bd
00000020: 4165 803e b8a6 523b
-0.10725431 -0.023307446 -0.062424935 -0.01642141 0.04291688 -0.05607864 -0.06590248 -0.043081436
0.2507725 0.003214283
