algorithm_design/permutation/model_ckpt2.pth (torch, 210864 bytes, 6 tensors)

linear1.weight f4 [64, 784]
0	0x3ca7110e	0.020393874
1	0x3d0a36cf	0.033743676
2	0x3d2224e9	0.03958598
3	0xba65a5fe	-0.00087603915
4	0x3d50155e	0.050801627
5	0x3c25683d	0.010095653
6	0x3cc6e1e5	0.024277637
7	0xbb469f6f	-0.0030307432
8	0x3d1ff684	0.039053455
9	0xbab0f924	-0.0013501984
10	0x3c8f5acf	0.017499356
11	0x3d5da36b	0.054110926
12	0x3d1b57ae	0.037925415
13	0x3d3dfac2	0.04638172
14	0x3cdf7993	0.02727965
15	0x3c84107c	0.016121142
16	0x3cad6b15	0.021169225
17	0x3d209a5a	0.0392097
18	0x3d33b8c8	0.043877393
19	0x3b8653d8	0.0040993504
20	0x3cb95d29	0.02262743
21	0x3d0a59e8	0.033777148
22	0x3d430bda	0.047618724
23	0x3d322990	0.04349667
24	0x3a60e1f9	0.00085785944
25	0x3d2c3ccb	0.042050164
26	0x3d3f353b	0.046681624
27	0x3c18d532	0.0093281735
28	0x3d104bec	0.035228655
29	0x3c09e8cd	0.00841732
30	0x3c2e3e6b	0.010634999
31	0x3cd04ce9	0.025427299
32	0x3d371a05	0.04470255
33	0x3cc0cfa2	0.023536507
34	0x3ce107e1	0.027469577
35	0x3cfb5171	0.030678483
36	0x3cd681e0	0.026184976
37	0x3cc63f27	0.024200035
38	0xbb08aead	-0.0020856068
39	0x3c844ada	0.016148973
40	0xba9caa20	-0.0011952557
41	0x3d16d695	0.036825735
42	0x3d289099	0.041153524
43	0x3b470a2e	0.0030371058
44	0xbd074f9d	-0.03303491
45	0x3c6a9701	0.014318229
46	0x3ae70623	0.001762573
47	0x3cc86d5f	0.024466215
48	0x3bc142d7	0.0058978605
49	0x3d611d2e	0.05495947
50	0x3cb58cab	0.022161802
51	0x3c32bb2b	0.010908882
52	0x3d43c0ee	0.047791414
53	0xb7edf7dd	-2.8368022e-05
54	0x3cf7c19a	0.030243684
55	0x3c884281	0.016633274
56	0x3d386ff5	0.045028646
57	0x3ce31f7e	0.027724978
58	0xbb905d70	-0.00440567
59	0xbbb09341	-0.005388648
60	0x3cd3353e	0.025782224
61	0x3d0eff80	0.034911633
62	0xbbd495c5	-0.0064875805
63	0x3d3e34de	0.046437137
64	0xbc87a194	-0.016556539
65	0xbd2eccf4	-0.042675927
66	0xbdc67e47	-0.09692054
67	0xbdbf3047	-0.0933538
68	0xbe0b90fb	-0.13629524
69	0xbca65a80	-0.020306826
70	0xbd9abb18	-0.075552166
71	0xbd66fcd4	-0.05639346
72	0xbdb1ae00	-0.08675766
73	0xbd99094d	-0.07472477
74	0xbd63b080	-0.055588245
75	0x3bd2749d	0.006422593
76	0xbc79af2f	-0.015239521
77	0x3d0012d4	0.031267956
78	0x3d468f33	0.04847641
79	0x3d2cf471	0.042225305
80	0x3ce706d9	0.028201507
81	0xbc2c7b73	-0.010527479
82	0x3cd1d4d7	0.025614185
83	0xba2df3d7	-0.0006635761
84	0x3c88ac79	0.016683804
85	0x3ced7dbb	0.028990617
86	0x3ca07f38	0.019591913
87	0x3ab4a489	0.0013781945
88	0x3d08b757	0.03337797
89	0x3d2902ec	0.041262552
90	0x3cf50671	0.029910298
91	0x3ca6e990	0.020375043
92	0x3c017acc	0.007902812
93	0xbdf80675	-0.121106066
94	0xbd40c94e	-0.04706698
95	0xbbcfb576	-0.0063387705
96	0x3daa60e1	0.083192594
97	0x3c876028	0.016525343
98	0x3da29d9f	0.0794022
99	0x3e145365	0.14484937
100	0x3df1ec55	0.11812655
101	0x3e8dd6f1	0.2770305
102	0x3e936d09	0.28794125
103	0x3de69e18	0.11260623
104	0x3e5036da	0.20333424
105	0x3db6beba	0.08923097
106	0x3cf7d009	0.030250566
107	0xbc2cf82d	-0.010557217
108	0xbc198441	-0.009369911
109	0x3d0b78a4	0.0340506
110	0x3c084d2c	0.00831918
111	0x3b8fd431	0.004389309
112	0x3cc8767c	0.02447056
113	0x39fafafa	0.00047870708
114	0xb9bb6091	-0.00035739367
115	0x3d34c0b0	0.044129074
116	0x3d5028ca	0.05082015
117	0x3ca8b9ad	0.02059635
118	0xbd1d741e	-0.038440816
119	0xbc46134d	-0.012089563
120	0xbdb1bc3d	-0.08678482
121	0xbe6e9dca	-0.23302379
122	0xbe0f33e4	-0.13984638
123	0x3dd6a0a9	0.10479862
124	0x3dbf602b	0.093445145
125	0x3e6aabe4	0.22917134
126	0x3dc9bf1a	0.09850903
127	0x3de7aa48	0.113117754
128	0x3d6b5f48	0.057463914
129	0xbd91d376	-0.07120411
130	0xbd28e273	-0.041231584
131	0x3d886f9a	0.06661911
132	0x3d914f5b	0.07095214
133	0x3daf6639	0.08564419
134	0xbc319412	-0.010838525
135	0x3d9a2c94	0.07528034
136	0x3e1b5afb	0.15171425
137	0x3de50404	0.111824065
138	0x3ca5a9ec	0.020222627
139	0x3c521b3c	0.012823876
140	0x3d47d587	0.04878762
141	0x3cf7454a	0.030184407
142	0x3cf92024	0.030410834
143	0x3c5b7ebe	0.013396917
144	0xbd74a070	-0.059723318
145	0xbd88d50a	-0.06681259
146	0xbdc1305a	-0.094330505
147	0xbe330abd	-0.17484565
148	0xbeb7c8bd	-0.3589534
149	0xbe9be534	-0.30448306
150	0xbdd77191	-0.10519708
151	0xbd35e6af	-0.04440945
152	0x3d1dcf10	0.03852755
153	0xbc5cac85	-0.013468866
154	0x3d01c9c4	0.03168656
155	0x3d8b4d37	0.06801837
156	0x3b13d7c9	0.0022559038
157	0x3daac90d	0.08339129
158	0xbe349007	-0.17633067
159	0x3c3f93d0	0.011692956
160	0x3d86baf2	0.06578626
161	0xbe41ab62	-0.18913034
162	0xbe51858b	-0.20461099
163	0xbe41a2ad	-0.18909712
164	0xbe175498	-0.14778364
165	0xbdc50ec6	-0.096219584
166	0x3c8b57e4	0.017009683
167	0x3d40362b	0.04692666
168	0x3d100ffe	0.0351715
169	0x3c5b1911	0.0133726755
170	0x3d2523b7	0.040317263
171	0xbd41f1a8	-0.047349602
172	0xbd892f86	-0.066985175
173	0xbce0e663	-0.027453607
174	0xbe339aeb	-0.17539565
175	0xbe9c88e9	-0.30573204
176	0xbec1ffb5	-0.378904
177	0xbe55a0b5	-0.20862086
178	0xbd0fe7ca	-0.03513316
179	0xbbaddd5a	-0.005305928
180	0xbd63d961	-0.05562723
181	0xbd0212ff	-0.031756397
182	0x3c92c03f	0.017913936
183	0xbd04c1fe	-0.032411568
184	0xbd7e9b63	-0.062159907
185	0xbd0be82d	-0.034156967
186	0xbdc2ac0a	-0.0950547
187	0x3d083045	0.03324916
188	0x3df952b1	0.12173975
189	0xbd841e56	-0.064510986
190	0xbe569c7d	-0.20958133
191	0x3d38fff7	0.045165982
192	0x3d4a9e5c	0.04946743
193	0xbcbd9acc	-0.023145102
194	0x3d71bbfc	0.059017166
195	0xbc19b1b8	-0.00938075
196	0x3d4fe4e5	0.0507554
197	0x3d04084e	0.032234482
198	0x3cb786d6	0.022403162
199	0xbc84a006	-0.016189586
200	0xbe27674a	-0.16347995
201	0xbea07581	-0.31339648
202	0xbe929781	-0.28631213
203	0xbe42335c	-0.18964905
204	0xbdf8ff58	-0.12158078
205	0xbcb4d0e9	-0.022072272
206	0x3dcad837	0.09904521
207	0x3db37019	0.08761615
208	0x3d7840f1	0.060608808
209	0x3d58bbfa	0.052913643
210	0x3d867661	0.06565548
211	0xbd2e075e	-0.042487495
212	0xbe07a305	-0.13245781
213	0xbd77b174	-0.060471967
214	0xbe2c5535	-0.16829379
215	0xbd74095a	-0.05957923
216	0x3cf3bf75	0.02975438
217	0xbe1397c5	-0.14413364
218	0xbe13062b	-0.14357822
219	0x3e3354b6	0.17512783
220	0x3d0f3773	0.03496499
221	0xbce77b72	-0.028257105
222	0x3ce264fd	0.027636046
223	0x3c3cd525	0.011525427
224	0x3b9a242a	0.004704018
225	0x3d412085	0.047150154
226	0x3cd12531	0.02553043
227	0x3d3bb6a4	0.045828477
228	0xbd9bb27a	-0.07602401
229	0xbe588dc4	-0.2114783
230	0xbdb0f4f3	-0.0864047
231	0xbd6db73a	-0.058036067
232	0x3d1e784b	0.03868894
233	0xbdc6c8ea	-0.0970629
234	0xbdd57b2f	-0.10423886
235	0xbcdfb0a5	-0.02730591
236	0xbd67455a	-0.056462623
237	0x3d59c292	0.053164072
238	0x3bcba28d	0.006214446
239	0xbd3cc2d1	-0.04608423
240	0x3d29458c	0.04132609
241	0xbd880e75	-0.066433825
242	0x3cce8951	0.025211962
243	0xbe15d06b	-0.14630286
244	0xbd39f58c	-0.045400187
245	0x3db32918	0.087480724
246	0x3db06c57	0.08614414
247	0x3e2c3705	0.16817863
248	0x3ea5ad4b	0.32358775
249	0x3e2cfd8f	0.168936
250	0xbc5bcae5	-0.013415073
251	0x3cc838f6	0.024441224
252	0xbaeae7f7	-0.0017921914
253	0x3a46e1f4	0.000758677
254	0x3d9166df	0.07099699
255	0x3d84a27c	0.06476304

linear1.bias f4 [64]
0	0xbd4bf095	-0.049789984
1	0x3c1b591e	0.009481696
2	0x3d65eeb9	0.056135867
3	0x3d13bb18	0.0360671
4	0x3ba72c45	0.005101713
5	0xbcf95915	-0.030437985
6	0x3bc366fb	0.005963204
7	0x3c23d383	0.009999159
8	0x3d055d19	0.032559488
9	0xbd8e8f9c	-0.06960985
10	0xbd3e0f42	-0.04640127
11	0xbca8c4d3	-0.020601666
12	0x3b3530d0	0.0027647503
13	0xbd0abff1	-0.033874456
14	0xbce44994	-0.027867116
15	0x3cccbcd8	0.024992391
16	0x3c56790f	0.013090386
17	0x3cc093d4	0.02350799
18	0xbca99e4b	-0.020705363
19	0xbcadb470	-0.021204203
20	0xbc394539	-0.011308008
21	0xbd352694	-0.044226244
22	0xbcbb0d78	-0.02283357
23	0x3c73ab41	0.014872373
24	0x3c8b5822	0.017009798
25	0xbbe48ddd	-0.0069749192
26	0xbd9866b5	-0.07441465
27	0x375b7c05	1.3082293e-05
28	0xbc8b0572	-0.01697037
29	0x3be210d1	0.0068989773
30	0xbcf878f7	-0.030331118
31	0xbc65574e	-0.013997866
32	0x3c03ca76	0.008043876
33	0xbc316706	-0.010827785
34	0xbc4d449b	-0.012528564
35	0xbb6d46a6	-0.003620544
36	0xbcdff8db	-0.027340343
37	0xbc9a717c	-0.018852942
38	0x3d2eb580	0.04265356
39	0xbc25a44a	-0.01010997
40	0xbd2fc908	-0.042916328
41	0xbbcc74ac	-0.0062394943
42	0xbc8c8914	-0.017155208
43	0x3d22873c	0.03967975
44	0x3d4c1c75	0.049831826
45	0xbd106c24	-0.03525938
46	0xbcb620d8	-0.022232458
47	0x3cb525b8	0.022112712
48	0x3d020987	0.031747367
49	0xbc80ec41	-0.015737655
50	0xbd5f431d	-0.054507364
51	0xbc50e11c	-0.012748983
52	0xbbb4725e	-0.0055067977
53	0x3b05978b	0.0020384516
54	0x3c8f372a	0.017482359
55	0xbd4173b7	-0.047229495
56	0xbd08c489	-0.033390556
57	0x3c800bbc	0.015630595
58	0xbc9e2d12	-0.0193086
59	0xbcea8c43	-0.028631335
60	0xbc84352f	-0.016138641
61	0xbb21ca51	-0.002468724
62	0x3d738b36	0.059458934
63	0x3b0acea1	0.002118029

linear2.weight f4 [24, 64]
0	0x3e516d45	0.2045184
1	0xbe885701	-0.2662888
2	0x3e4fc4a1	0.20289852
3	0xbe33b351	-0.17548873
4	0x3e246241	0.16053106
5	0x3e9a0da5	0.30088535
6	0x3a59f09f	0.00083137484
7	0xbd97bb3b	-0.07408758
8	0x39910202	0.0002765805
9	0x3e1182de	0.14210078
10	0xbd27af5c	-0.04093872
11	0xbdf33f9d	-0.11877368
12	0xbd8edb64	-0.06975439
13	0x3b445be7	0.0029962005
14	0x3d1c7628	0.03819862
15	0x3d931fbc	0.07183787
16	0x3d2ddf11	0.04244906
17	0x3e3425a2	0.17592481
18	0x3e870ff3	0.26379356
19	0xbe9b7620	-0.3036356
20	0x3d7c982c	0.06166856
21	0x3e87f214	0.26551878
22	0xbd399bd5	-0.04531463
23	0xbcd7464a	-0.026278634
24	0xbe8a0e95	-0.2696425
25	0xbe5453cf	-0.20735095
26	0xbd67a1bb	-0.056550723
27	0x3db4ac38	0.088219106
28	0x3b43c77f	0.0029873548
29	0xbca1436a	-0.019685466
30	0xbd7b0c23	-0.06129087
31	0xbe22095d	-0.15823884
32	0x3d7847a2	0.06061519
33	0xbd2b0611	-0.041753832
34	0x3c5cb9d4	0.013472039
35	0x3eaf13a0	0.3419466
36	0x3df8c482	0.12146856
37	0x3e3be70a	0.18349853
38	0xbe48a79b	-0.19595186
39	0xbe094561	-0.13405372
40	0x3e88775c	0.26653564
41	0x3e926983	0.28596124
42	0x3e249ae8	0.16074717
43	0x3ed552ab	0.41664633
44	0xbe739c41	-0.23790075
45	0xbc9a4a3d	-0.018834228
46	0xbe64496e	-0.22293636
47	0x3e5e1892	0.2168906
48	0x3e2da150	0.16956067
49	0xbe16b12d	-0.14716025
50	0x3e2be8b5	0.1678799
51	0x3e44050d	0.19142552
52	0xbd811933	-0.063036345
53	0xbf12b8d9	-0.57313305
54	0xbe392409	-0.18080153
55	0xbd96ee16	-0.0736963
56	0x3d8ad9b4	0.06779805
57	0xbda9acd9	-0.08284921
58	0x3caccfe4	0.021095224
59	0x3de96723	0.11396625
60	0xbebe4eaf	-0.37169406
61	0xbdcae925	-0.0990775
62	0xbd29c197	-0.041444387
63	0xbd70f054	-0.058822945
64	0xbc60476b	-0.013688902
65	0x3d6d790a	0.05797676
66	0x3d07467d	0.033026207
67	0xbda5e584	-0.08100417
68	0x3e27fa6c	0.16404122
69	0xbd8b4bac	-0.06801543
70	0x3ca9c6f9	0.02072476
71	0xbe00f584	-0.12593657
72	0xbeca2f60	-0.3948927
73	0xbe629b1c	-0.22129482
74	0xbcea1f17	-0.028579278
75	0xbeed7c80	-0.46384048
76	0xbe50e10b	-0.20398347
77	0xbf1919fb	-0.5980527
78	0x3e0e1d4e	0.13878366
79	0x3caa7711	0.020808728
80	0x3dbfca3b	0.09364744
81	0x3d019435	0.031635482
82	0x3df2bf2f	0.118528716
83	0xbb2bc4e4	-0.0026209885
84	0x3d402e28	0.046919018
85	0x3e02942b	0.12751834
86	0x3d1bee07	0.038068797
87	0x3dbe0e6c	0.092800945
88	0x3b07307b	0.0020628262
89	0xbe7e5041	-0.24835302
90	0xbe940150	-0.2890725
91	0xbe53840d	-0.20655842
92	0xbee86c81	-0.45395282
93	0xbe359f4c	-0.17736548
94	0x3e0861b9	0.13318528
95	0x3d825b41	0.063650616
96	0x3de958f3	0.11393919
97	0xbc92190a	-0.017834205
98	0x3e3ef32d	0.18647452
99	0xbe1bf147	-0.15228759
100	0x3d2df573	0.042470407
101	0x3e63f355	0.22260793
102	0x3e178eaa	0.14800516
103	0xbe6241fc	-0.22095484
104	0xbdf8b064	-0.12143019
105	0xbe19cdc8	-0.15019906
106	0xbd02ceda	-0.03193555
107	0x3e8d875c	0.27642334
108	0x3e4254c8	0.18977654
109	0xbe4d9475	-0.20076163
110	0x3e4fdcd1	0.20299079
111	0x3d805453	0.062660836
112	0x3e485279	0.19562711
113	0x3e7d6deb	0.24748962
114	0x3c77cbc0	0.015124261
115	0x3e48ff5c	0.19628662
116	0x3db34110	0.08752644
117	0x3e5cfe67	0.21581422
118	0xbdca1036	-0.09866373
119	0xbd2dffe2	-0.042480357
120	0xbe8df549	-0.277262
121	0xbe4c4e18	-0.19951665
122	0xbe942df7	-0.28941318
123	0xbe4bb02f	-0.19891427
124	0xbe3c4fb9	-0.18389787
125	0x3dc282ff	0.09497642
126	0xbc25e390	-0.010125056
127	0x3d089fdb	0.033355575
128	0xbdfd6891	-0.1237346
129	0x3d46d482	0.048542507
130	0xbdf3784c	-0.11888179
131	0x3e891692	0.26775032
132	0xbe51d5b0	-0.20491672
133	0x3d8a06b6	0.06739561
134	0xbdbb2faa	-0.091399506
135	0x3e09deee	0.13463947
136	0x3e201095	0.15631326
137	0xbe31cc26	-0.17363033
138	0x3c18dad0	0.009329513
139	0x3d82f06d	0.06393514
140	0xbde544c4	-0.111947566
141	0x3e3cd97f	0.18442343
142	0xbe851c99	-0.2599838
143	0xbe45b7c5	-0.19308384
144	0xbe5fbe6f	-0.21849988
145	0x3d72f64e	0.059316926
146	0xbcdf3259	-0.027245687
147	0x3ef16a47	0.47151396
148	0x3dc9d5a5	0.098552026
149	0xbe9ae8c3	-0.30255708
150	0xbd5ffa36	-0.05468198
151	0xbdd95348	-0.10611588
152	0x3e02686f	0.12735151
153	0x3dd1207e	0.102112755
154	0x3d105e6c	0.035246298
155	0x3e4d52d4	0.20051128
156	0x3e683d38	0.22679603
157	0x3e5a338e	0.21308729
158	0xbe2b5976	-0.16733345
159	0x3e07eb6d	0.13273402
160	0xbd695ad3	-0.056971382
161	0x3dbb9a6d	0.09160314
162	0xbcf30887	-0.029667152
163	0xbde3f6a1	-0.11131025
164	0xbe09cdfb	-0.13457482
165	0x3df6a981	0.12044049
166	0x3db2fc5a	0.087395385
167	0x3e74c2e0	0.23902464
168	0x3a848851	0.0010111426
169	0xbe5f8a28	-0.21830046
170	0x3d55a4a8	0.05215898
171	0xbec3e2a8	-0.38258862
172	0x3ea0caa5	0.31404606
173	0x3f0dcd77	0.5539164
174	0x3bec9c80	0.0072208047
175	0xbd01c640	-0.031683207
176	0x3e8ab97e	0.27094644
177	0xbe475949	-0.19467653
178	0x3d96bb70	0.073599696
179	0x3ef2c911	0.47419026
180	0xbdea9e10	-0.11455929
181	0x3e0410b8	0.12897003
182	0xbe570dc2	-0.21001342
183	0x3db6f4e9	0.08933432
184	0x3e01010b	0.12598054
185	0x3e06252f	0.13100122
186	0x3cb76c04	0.022390373
187	0x3ede7660	0.43449688
188	0x3efba7a4	0.49151337
189	0x3d1527df	0.036414977
190	0x3e35d598	0.17757261
191	0x3db0b591	0.08628381
192	0xbe8cecf2	-0.27524525
193	0x3bf0795e	0.007338687
194	0xbdcf56e1	-0.10123993
195	0x3e8e1e27	0.2775738
196	0xbd9cb8c5	-0.076524295
197	0x3e520c49	0.20512499
198	0xbd99c4f1	-0.07508267
199	0x3da8194e	0.082079515
200	0xbeb618ae	-0.35565704
201	0xbe11dcc8	-0.14244378
202	0x3e679849	0.22616686
203	0x3eb146bd	0.34624282
204	0xbe82bf21	-0.25536445
205	0xbd35be99	-0.04437122
206	0xbd61c193	-0.055116247
207	0x3b83c1f5	0.004020924
208	0x3aca9f4e	0.0015458853
209	0x3de2782a	0.11058076
210	0xbcd2e088	-0.02574183
211	0x3e037774	0.12838537
212	0xbdc29ab2	-0.09502162
213	0x3d005ad0	0.031336606
214	0x3d40ed24	0.047101155
215	0x3d10ace5	0.035321135
216	0x3e91f7dc	0.28509414
217	0x3c2b0a59	0.010439479
218	0x3ed26494	0.4109236
219	0x3d9e2991	0.07722772
220	0x3db7756a	0.08957942
221	0x3dbed055	0.0931708
222	0x3c012c48	0.007884093
223	0xbb7f761e	-0.0038980315
224	0x3de6da65	0.11272124
225	0xbcd01898	-0.025402352
226	0x3e714817	0.23562656
227	0xbd545d17	-0.05184659
228	0x3c512d1c	0.012767103
229	0x3db5abbe	0.08870648
230	0xbdc2a109	-0.09503371
231	0xbd525e4a	-0.051359452
232	0x3d031d84	0.03201057
233	0xbd47fb09	-0.04882339
234	0xbc664e81	-0.014056803
235	0xbe069ecf	-0.13146518
236	0x3e9d9d84	0.30784237
237	0xbe2bdacb	-0.16782682
238	0x3e25d592	0.16194752
239	0x3da56c13	0.08077254
240	0x3e03a2ba	0.12855044
241	0x3e9f6841	0.31134227
242	0x3de45a6e	0.111500606
243	0xbe0c8747	-0.13723479
244	0x3dabbeb6	0.083859846
245	0x3dd10733	0.10206451
246	0xbe6dc1c1	-0.23218442
247	0xbda41a4c	-0.08012828
248	0xbe323791	-0.1740401
249	0xbd2fcd01	-0.042920116
250	0xbe69ca8c	-0.22831172
251	0xbe1392a0	-0.14411402
252	0x3d228583	0.039678108
253	0x3d342d4c	0.04398851
254	0xba4734d2	-0.00075991184
255	0x3d6cae0f	0.057783183

linear2.bias f4 [24]
0	0x3d6e4807	0.05817416
1	0xbcf471e1	-0.029839458
2	0xbe040f8b	-0.12896554
3	0xbd11a85c	-0.03556095
4	0xbd9c7466	-0.07639389
5	0x3d44424b	0.047914784
6	0x3c9ef2c3	0.019402867
7	0xbdd9c28f	-0.10632812
8	0xbe2b457d	-0.16725726
9	0xbd29f9de	-0.041498058
10	0x3dc319b4	0.09526387
11	0xbced05dd	-0.02893346
12	0x3d86ea0d	0.065876104
13	0xbdda45a3	-0.106578134
14	0x3e231e77	0.1592959
15	0x3e822e6d	0.25426045
16	0xbd9f8b8f	-0.077902906
17	0xbdab4c71	-0.083641894
18	0xbd3112a7	-0.04323068
19	0x3c8cde2a	0.01719578
20	0xbe0a7d23	-0.13524298
21	0x3dfe1d9b	0.124079905
22	0xbd2f2a18	-0.042764753
23	0x3cc9ce84	0.024634607

linear3.weight f4 [10, 24]
0	0xbc477b10	-0.0121753365
1	0x3e8c0a22	0.2735148
2	0xbefd5d85	-0.49485412
3	0x3e2b0b16	0.16703448
4	0xbcd0d3fd	-0.025491709
5	0xb94057e1	-0.00018343284
6	0xbe6a33e9	-0.22871365
7	0xbd1ba5da	-0.037999965
8	0x3e670399	0.22559966
9	0xbe88a195	-0.26685777
10	0xbeb87acd	-0.3603119
11	0x3e716876	0.23575005
12	0xbdd4fb52	-0.10399498
13	0x3c3d44a9	0.011552014
14	0xbd3c7663	-0.04601134
15	0xbd23229c	-0.039827928
16	0xbee14383	-0.4399682
17	0x3e19901c	0.1499638
18	0xbedafbcd	-0.42770234
19	0xbea4c126	-0.3217861
20	0x3e7aa672	0.24477556
21	0xbdfa6ac4	-0.12227395
22	0x3e3f9d90	0.18712449
23	0xbe9a0891	-0.3008466
24	0xbeaa6f5a	-0.3328808
25	0xbed66e08	-0.41880822
26	0x3e11eae7	0.14249764
27	0x3d110738	0.035407275
28	0x3e1693ee	0.14704868
29	0xbe114a5f	-0.14188527
30	0xbe1c5772	-0.15267733
31	0x3da5f935	0.08104173
32	0x3e2ae764	0.16689831
33	0xbe0f29f8	-0.13980854
34	0xbf2dfd1f	-0.6796436
35	0xbd24aa8f	-0.04020172
36	0x3dce5356	0.10074489
37	0x3b2e0901	0.002655566
38	0x3e837115	0.25672212
39	0xbf0dc89c	-0.5538423
40	0x3eb00b42	0.3438359
41	0xbe137d68	-0.14403307
42	0x3ea3c9e7	0.31989977
43	0x3c2d967c	0.01059496
44	0xbea6c7e6	-0.32574385
45	0x3c5645ec	0.013078194
46	0x3dfc3488	0.12314707
47	0xbe211dcc	-0.15734023
48	0xbf28b49d	-0.65900594
49	0xbea66304	-0.32497418
50	0x3ea0032c	0.3125242
51	0x3e4b5276	0.19855675
52	0x3e9531e3	0.29139623
53	0x3e197a07	0.14987956
54	0x3e046e13	0.12932615
55	0xbdc9b78b	-0.09849461
56	0xbe9c19c8	-0.3048842
57	0xbe28f422	-0.1649938
58	0xbe574ba7	-0.21024953
59	0xbe46adc4	-0.19402224
60	0xbf1cf8af	-0.6131696
61	0x3dda5f71	0.10662735
62	0xbd58b0a2	-0.052902825
63	0xbddfb56a	-0.10923274
64	0x3e1cc7ec	0.15310639
65	0x3da28256	0.07935016
66	0xbea1fe77	-0.31639454
67	0xbe7e0c45	-0.24809368
68	0x3e93e168	0.2888291
69	0xbe0e6369	-0.1390511
70	0x3e8658e8	0.26239705
71	0x3e7b7453	0.24556093
72	0xbea16b11	-0.31526998
73	0xbe066c8c	-0.13127345
74	0x3e7362c2	0.23768142
75	0xbda722ab	-0.08160909
76	0x3c72cad9	0.01481887
77	0x3dce8937	0.100847654
78	0x3d900a88	0.07033259
79	0x3df89f16	0.12139718
80	0x3d7ba62a	0.061437763
81	0xbd02bd20	-0.031918645
82	0x3e1d608e	0.15368864
83	0x3e82dc27	0.25558588
84	0xbca6ab44	-0.020345338
85	0x3dcfa699	0.10139198
86	0xbee0e9f1	-0.43928483
87	0x3d921df7	0.071346216
88	0xbf03d926	-0.5150322
89	0xbedfd30f	-0.43715712
90	0x3e7dfc8a	0.24803367
91	0xbecc2315	-0.39870515
92	0x3e4179d0	0.18894124
93	0x3e35a917	0.17740284
94	0xbec1a465	-0.37820736
95	0x3e8ab6a4	0.2709247
96	0x3edbf0ee	0.42957252
97	0x3bb1f72e	0.0054310774
98	0xbee10695	-0.43950334
99	0x3e19d9ec	0.15024537
100	0x3efb0373	0.4902607
101	0xbed9dfc9	-0.42553547
102	0x3cd715dc	0.02625554
103	0xbdf36f8e	-0.11886512
104	0xbe871ea2	-0.26390558
105	0x398c4ddf	0.000267609
106	0xbe352ec7	-0.17693625
107	0xbe2b281f	-0.16714524
108	0xbe696450	-0.22792172
109	0x3e02de34	0.12780076
110	0x3e58e1f2	0.21179941
111	0x3db715b9	0.0893969
112	0x3db52403	0.08844759
113	0x3db2265d	0.086987235
114	0xbe53d564	-0.20686871
115	0x3e69acb9	0.22819795
116	0x3e24e9f8	0.16104877
117	0x3d6b8036	0.05749532
118	0xbeb307ef	-0.3496699
119	0x3ca6dff3	0.02037046
120	0x3e3ae60c	0.18251818
121	0xbf12a8b7	-0.5728869
122	0x3db6cffe	0.0892639
123	0xbeda72b5	-0.4266564
124	0xbd63c04d	-0.055603314
125	0x3da59adf	0.0808618
126	0x3eb69528	0.35660672
127	0x3db58910	0.08864033
128	0xbdb7a0b6	-0.089662
129	0xbe744f0e	-0.23858282
130	0x3dbf95a1	0.09354711
131	0x3d1ad660	0.0378021
132	0x3eeab032	0.4583755
133	0x3cbb54f7	0.022867663
134	0xbf344607	-0.70419353
135	0x3e003562	0.12520364
136	0xbd9409b4	-0.07228413
137	0xbebfb1c5	-0.37440315
138	0xbddfa737	-0.109205656
139	0xbed8af87	-0.42321417
140	0xbe933d32	-0.28757626
141	0xbe86b711	-0.26311544
142	0x3d864581	0.065562256
143	0x3de192eb	0.110143505
144	0x3e8bd8b6	0.27313775
145	0xbe7aae1c	-0.2448048
146	0xbf3df71e	-0.74205196
147	0x3e1a3659	0.15059794
148	0xbefdaedd	-0.49547473
149	0x3e683646	0.22676954
150	0xbf4bf7f2	-0.7967521
151	0xbde3d5e9	-0.111247845
152	0x3e8f9783	0.28045282
153	0xbc77ba16	-0.01512005
154	0x3e04fee7	0.12987863
155	0xbf033c7c	-0.51264167
156	0x3d5a56b4	0.053305343
157	0x3b71ba5d	0.0036884763
158	0xbeb4dbde	-0.35323995
159	0xbe3c3e7e	-0.18383214
160	0x3e8995c8	0.26872087
161	0xbe603f49	-0.21899141
162	0xbde6f981	-0.11278058
163	0x3df2c801	0.11854554
164	0xbe632354	-0.22181445
165	0xbe797701	-0.24361803
166	0x3e0cded9	0.13756885
167	0xbddd4904	-0.10804942
168	0xbda56703	-0.080762886
169	0xbe3aff5f	-0.18261479
170	0x3e392542	0.18080619
171	0x3d9ce8cb	0.07661589
172	0xbee11c3a	-0.43966848
173	0xbeea7929	-0.45795563
174	0x3d9b2a61	0.075764425
175	0xbe14782d	-0.14498968
176	0xbec78d24	-0.3897487
177	0xbe06abfb	-0.13151543
178	0x3dd50bc3	0.10402634
179	0x3e5d7558	0.21626794
180	0xbea338c8	-0.31879258
181	0xbe0a27dd	-0.13491769
182	0x3e34da84	0.17661482
183	0xbd93b99f	-0.07213139
184	0xbea99165	-0.3311874
185	0x3ebd7138	0.37000442
186	0x3e574961	0.21024086
187	0x3ea5f77a	0.32415372
188	0xbd91996f	-0.07109343
189	0xbd590301	-0.05298138
190	0x3dc2fb4e	0.09520589
191	0x3e196140	0.14978504
192	0xbe07493d	-0.13211532
193	0xbe83fe00	-0.25779724
194	0xbeb623a6	-0.35574073
195	0xbdd8f7a6	-0.1059411
196	0xbf109233	-0.5647308
197	0x3db8bd9f	0.09020542
198	0xbe10fdb7	-0.14159285
199	0xbda00bde	-0.078147635
200	0xbe5249fa	-0.20536032
201	0xbeb9619e	-0.36207289
202	0x3e8d6859	0.27618673
203	0xbe90da34	-0.28291476
204	0xbe0cf837	-0.13766561
205	0x3e1b7929	0.15182938
206	0x3dfcfd38	0.12352985
207	0x3ebbdd52	0.36692291
208	0xbde588d0	-0.112077355
209	0xbe8bcf17	-0.27306435
210	0x3d66e8b6	0.056374274
211	0xbf2310c0	-0.63697433
212	0xbe1c5f20	-0.15270662
213	0x3e8b1e26	0.2717144
214	0x3e86cd52	0.26328522
215	0x3e0ee3be	0.13954064
216	0xbd9bb310	-0.07602513
217	0x3ec7fb5e	0.39058965
218	0xbd4ebc8f	-0.050472792
219	0xbef2df3a	-0.47435933
220	0xbd1e3352	-0.03862316
221	0x3e6fb6fa	0.23409644
222	0x3e17067c	0.14748567
223	0x3e086a01	0.13321687
224	0xbf056290	-0.5210352
225	0x3e632a30	0.22184062
226	0xbf0e3fdc	-0.5556619
227	0xbc03ee59	-0.008052432
228	0x3df3d5aa	0.119059876
229	0x3dd35eba	0.10320802
230	0x3e4e4e2b	0.20147006
231	0x3e5a03c5	0.212905
232	0xbef3dac8	-0.47627854
233	0x3dfbc748	0.12293869
234	0xbe25e626	-0.16201076
235	0x3de88455	0.11353365
236	0xbe7b88c3	-0.24563889
237	0x3e81333d	0.25234404
238	0xbf0b2aca	-0.54362166
239	0xbf0d2dcc	-0.55148005

linear3.bias f4 [10]
0	0xbea6541a	-0.3248604
1	0xbe8852f5	-0.2662579
2	0xbd903023	-0.07040431
3	0xbd9bb813	-0.07603469
4	0xbdba9534	-0.091104895
5	0xbc394fa1	-0.011310489
6	0xbd971451	-0.07376922
7	0xbe6db033	-0.23211746
8	0x3eb47fa3	0.3525363
9	0x3e425082	0.18976024
