algorithm_design/permutation/test_ckpt.pth (torch, 210410 bytes, 4 tensors)

linear1.bias f4 [64]
-0.014549498 -0.007379518 0.03040822 0.018594285 -0.015266088 0.06998505 -0.032133434 -0.03664669
0.0060058804 -0.01594063 0.08647611 -0.024446849 0.025778674 0.009996081 -0.029156668 0.019653486
-0.0063649267 0.014570093 -0.01152485 -0.010231835 -0.020154374 0.024051202 0.028071266 -0.019419683
-0.010184848 -0.055682767 -0.015531763 0.020275116 0.0061894264 0.0031314993 0.002558923 -0.043504406
0.04902642 -0.029398778 -0.036640167 -0.019880166 -0.03748927 0.0064945393 -0.0036256847 0.0050366386
0.033868194 -0.034909654 -0.02272944 0.0066320086 -0.0033117917 -0.005035102 0.046010856 -0.015647167
0.006748378 -0.021239324 -0.06133128 -0.026380723 -0.025676535 -0.01642606 -0.0066792634 0.008319086
0.0042187413 0.0017369714 -0.025030835 -0.028867884 0.024522481 0.0056184367 0.034323666 0.062252283
00000000: 0561 6ebc e2cf f1bb a91a f93c 0b53 983c
00000010: 9d1e 7abc 5254 8f3d 599e 03bd d71a 16bd
00000020: facc c43b ed95 82bc 631a b13d c244 c8bc
00000030: cc2d d33c 9ac6 233c f7d9 eebc 5900 a13c
00000040: e090 d0bb 66b7 6e3c b9d2 3cbc 6da3 27bc
00000050: c91a a5bc 0707 c53c b6f5 e53c 0716 9fbc
00000060: 59de 26bc 9d13 64bd f078 7ebc 0018 a63c
00000070: acd0 ca3b d739 4d3b 9bb3 273b ad31 32bd
00000080: edcf 483d b5d5 f0bc 0014 16bd bbdb a2bc
00000090: 598e 19bd 25d0 d43b e59c 6dbb 630a a53b
000000a0: 60b9 0a3d 6dfd 0ebd 1733 babc 5251 d93b
000000b0: a50a 59bb 7ffd a4bb e175 3c3d 7d2e 80bc
000000c0: 7f21 dd3b 17fe adbc 8236 7bbd 631c d8bc
000000d0: 9957 d2bc f28f 86bc b9dd dabb c74c 083c
000000e0: 5e3d 8a3b 17ab e33a 770d cdbc 577c ecbc
000000f0: 5fe3 c83c dd1a b83b f996 0c3d 40fc 7e3d

linear2.bias f4 [24]
-0.016143668 -0.14850801 -0.030085612 -0.16536073 -0.0071218223 0.07101804 0.20425718 0.20301649
0.13129024 0.07348049 0.015342192 0.14326322 0.046884708 0.024474598 0.14557661 0.21834144
-0.028574206 -0.1891875 0.033988453 0.13163751 0.03510366 0.015783915 -0.10965824 0.053114746
00000000: ba3f 84bc 7c12 18be 1a76 f6bc 5354 29be
00000010: 2d5e e9bb e871 913d cb28 513e 8ee3 4f3e
00000020: f370 063e f07c 963d d15d 7b3c 98b3 123e
00000030: 2e0a 403d f47e c83c 0912 153e e694 5f3e
00000040: 7414 eabc 5eba 41be 7a37 0b3d fccb 063e
00000050: dbc8 0f3d 454d 813c 8094 e0bd d98e 593d

linear3.weight f4 [10, 24]
0.10458977 0.012897384 -0.50975734 -0.06253401 -0.07777167 0.27370387 0.13728517 -0.073503956
-0.40815502 -0.0072669974 0.24737719 0.18541373 0.058112215 0.40149558 -0.2669599 -0.0921642
-0.09738558 0.19600374 -0.12813462 -0.5213103 -0.15431572 -0.46799865 -0.4194049 -0.20651236
-0.7200379 0.017449046 0.15227501 0.2944932 0.3583989 -0.1456568 -0.6454131 -0.58109117
0.09179292 -0.015280836 -0.3206331 0.19480169 -0.020534743 0.09741191 0.028189262 -0.25744915
-0.40517795 0.18744999 0.16098495 0.053041562 -0.0352878 0.065033704 -0.0549233 -0.18126011
-0.11624411 -0.13286847 0.25040507 -0.14002053 0.14904743 0.16032319 0.12811239 -0.13818103
-0.1393046 -0.27735063 -0.027863627 0.16344114 0.13202152 -0.4317644 -0.20407283 -0.5852041
0.3375109 -0.34187505 0.09104174 -0.4216233 -0.0021750908 0.3352198 0.124999486 0.019930115
0.111565776 -0.16943207 0.30628487 0.010611706 -0.24498634 -0.21296047 -0.42337692 0.1945099
-0.4686586 -0.14059706 0.2720297 0.19045202 -0.18684098 -0.12301242 -0.39139575 -0.01879383
0.025567451 -0.35518017 0.2803496 0.20812954 -0.19205017 -0.23647967 -0.24870148 -0.40234363
0.0764275 0.1642615 -0.22850636 0.14657933 0.16640742 -0.43408045 -0.12896763 -0.2541999
0.2951982 -0.23780021 -0.5224577 -0.33235905 0.26907673 0.3130022 -0.04892021 -0.080094084
-0.102924205 -0.4189302 -0.18573762 0.06546044 -0.273836 0.16079363 -0.26618722 0.36272714
0.23462707 -0.36123326 0.13220313 -0.47494572 0.021099728 -0.042136826 -0.004432664 -0.007080933
0.014411821 0.06587841 0.017750718 -0.47414973 -0.46415737 -0.03799491 -0.19775155 0.28888306
-0.14330691 0.19119276 0.20966619 -0.002226464 -0.13334845 0.032396242 0.2552602 -0.17493202
-0.16858445 0.34932387 -0.610562 0.24936253 -0.18120508 -0.10107305 0.053547487 0.100894086
0.29981542 -0.15586554 0.12289606 -0.29421896 0.22215377 -0.2832809 -0.19389404 0.29284278
0.21148986 0.13340159 0.1366545 -0.56875217 0.045853697 -0.090538 0.10492016 -0.5162255
-0.1635753 0.28845027 0.14173663 0.20955868 -0.13243276 0.21150802 -0.033504203 -0.5109934
-0.50335854 0.007301678 0.11387638 -0.16857365 -0.16457531 -0.13028456 -0.16470326 -0.39899683
-0.44897836 0.10701236 -0.29457542 0.20436214 -0.25791442 0.29942852 -0.3681228 0.16595182
-0.3527767 -0.519673 -0.05076283 -0.27912113 -0.4385994 0.23957305 0.1260786 0.27456602
0.10223997 0.13575612 -0.14466326 0.10170008 0.21389231 -0.104026526 0.1052248 0.29186162
-0.13979499 -0.3639101 -0.2918573 0.053011037 0.09718929 0.1320812 -0.07668828 -0.24360682
0.01996231 0.09056691 0.041956924 -0.045829546 0.30016184 -0.38060713 0.16538008 0.075231545
-0.11426406 0.015248865 0.10620578 -0.057362158 -0.27064633 0.23627177 0.20824409 -0.1087929
0.17562295 -0.40573114 -0.45479488 0.18314801 -0.19322117 -0.5542614 0.22794649 0.09968211
00000000: 2933 d63d 8d4f 533c 757f 02bf d511 80bd
00000010: c146 9fbd ea22 8c3e 7c94 0c3e 3e89 96bd
00000020: b2f9 d0be fe1f eebb 7250 7d3e 19dd 3d3e
00000030: 1307 6e3d d490 cd3e f8ae 88be 96c0 bcbd
00000040: 1772 c7bd 34b5 483e b935 03be 9874 05bf
00000050: f104 1ebe 859d efbe 3dbc d6be fa77 53be
00000060: 6754 38bf 4df1 8e3c fbed 1b3e d0c7 963e
00000070: 1080 b73e 0e27 15be cb39 25bf 64c2 14bf
00000080: edfd bb3d 795c 7abc 062a a4be 187a 473e
00000090: 7a38 a8bc e57f c73d 2bed e63c 60d0 83be
000000a0: 7c73 cfbe e4f2 3f3e 3dd9 243e 1c42 593d
000000b0: f189 10bd 6430 853d 41f7 60bd 409c 39be
000000c0: 6411 eebd ac0e 08be 1835 803e 8b61 0fbe
000000d0: e49f 183e c32b 243e e52f 033e 547f 0dbe
000000e0: dda5 0ebe e700 8ebe 4342 e4bc 1d5d 273e
000000f0: a630 073e 3910 ddbe 78f8 50be f0cf 15bf
00000100: 3bce ac3e 3f0a afbe 1774 ba3d 02df d7be
00000110: f88b 0ebb eea1 ab3e bbff ff3d 7b44 a33c
00000120: 997c e43d 9a7f 2dbe 5fd1 9c3e b9dc 2d3c
00000130: b3dd 7abe 4f12 5abe dcc4 d8be 9a2d 473e
00000140: 05f4 efbe adf8 0fbe 7a47 8b3e db05 433e
00000150: 3e53 3fbe f0ed fbbd 0665 c8be 85f5 99bc
00000160: d572 d13c 2dda b5be fc89 8f3e e91f 553e
00000170: cda8 44be ba27 72be 9aab 7ebe fcff cdbe
00000180: 0586 9c3d 2b34 283e 92fd 69be e418 163e
00000190: b566 2a3e cb3f debe 1710 04be 7d26 82be
000001a0: 3824 973e e681 73be cabf 05bf f72a aabe
000001b0: 6dc4 893e d341 a03e 8f60 48bd 5e08 a4bd
000001c0: edc9 d2bd 057e d6be 0132 3ebe 2010 863d
000001d0: 3b34 8cbe 16a7 243e b149 88be 5fb7 b93e
000001e0: 1442 703e 91f3 b8be 4260 073e 162c f3be
000001f0: 56d9 ac3c aa97 2cbd e13f 91bb 2c07 e8bb
00000200: 8f1f 6c3c 43eb 863d f469 913c c1c3 f2be
00000210: 09a6 edbe 8da0 1bbd 627f 4abe 7be8 933e
00000220: 0cbf 12be 09c8 433e bcb2 563e dee9 11bb
00000230: 7f8c 08be ecb1 043d 77b1 823e 6121 33be
00000240: 67a1 2cbe 94da b23e cb4d 1cbf e458 7f3e
00000250: d38d 39be 63ff cebd 9c54 5b3d 8fa1 ce3d
00000260: 6881 993e 379b 1fbe eeb0 fb3d dea3 96be
00000270: 477c 633e 320a 91be 298c 46be 7def 953e
00000280: cc90 583e 6d9a 083e 28ef 0b3e be99 11bf
00000290: 16d1 3b3d fd6b b9bd 61e0 d63d 5b27 04bf
000002a0: 4980 27be c1af 933e 6823 113e 8d96 563e
000002b0: 749c 07be 8f95 583e b43b 09bd 77d0 02bf
000002c0: 1bdc 00bf ea42 ef3b 0538 e93d 929e 2cbe
000002d0: 6e86 28be 5169 05be f9a7 28be 5049 ccbe
000002e0: 7ee0 e5be 4c29 db3d 97d2 96be 4f44 513e
000002f0: 5c0d 84be b24e 993e 977a bcbe 46ef 293e
00000300: 269f b4be 4a09 05bf afec 4fbd f7e8 8ebe
00000310: 1a90 e0be a352 753e c01a 013e eb93 8c3e
00000320: 3063 d13d a703 0b3e 9b22 14be 2248 d03d
00000330: 9606 5b3e dc0b d5bd 1a80 d73d e36e 953e
00000340: 6b26 0fbe 6d52 babe 526e 95be 1a22 593d
00000350: 2e0b c73d 4b40 073e bf0e 9dbd 1174 79be
00000360: 0088 a33c 257b b93d 06db 2b3d c3b7 3bbd
00000370: d0ae 993e f0de c2be 6559 293e ff12 9a3d
00000380: 4703 eabd 60d6 793c 6a82 d93d 95f4 6abd
00000390: 2892 8abe 3af1 713e f03d 553e d0ce debd
000003a0: 81d6 333e febb cfbe e0da e8be 278b 3b3e
000003b0: c5db 45be 13e4 0dbf ce6a 693e 2226 cc3d

linear3.bias f4 [10]
-0.10725431 -0.023307446 -0.062424935 -0.01642141 0.04291688 -0.05607864 -0.06590248 -0.043081436
0.2507725 0.003214283
00000000: 26a8 dbbd 42ef bebc 4ab1 7fbd 3186 86bc
00000010: 9cc9 2f3d b7b2 65bd e1f7 86bd 2976 30bd
00000020: 4165 803e b8a6 523b
